…
ocalhost:8080/"},"id":"c_hbE68Mvtlw","executionInfo":{"status":"ok","timestamp":1669559367086,"user_tz":-420,"elapsed":665,"user":{"displayName":"royan fauzi maulana","userId":"12196168510436373684"}},"outputId":"9d2fb515-e67e-4920-fdac-5df206ff04da"},"execution_count":21,"outputs":[{"output_type":"stream","name":"stdout","text":["Model: \"sequential_6\"\n","_________________________________________________________________\n"," Layer (type)                Output Shape              Param #   \n","=================================================================\n"," conv2d_26 (Conv2D)          (None, 254, 254, 32)      896       \n","                                                                 \n"," max_pooling2d_26 (MaxPoolin  (None, 127, 127, 32)     0         \n"," g2D)                                                            \n","                                                                 \n"," conv2d_27 (Conv2D)          (None, 125, 125, 64)      18496     \n","                                                                 \n"," max_pooling2d_27 (MaxPoolin  (None, 62, 62, 64)       0         \n"," g2D)                                                            \n","                                                                 \n"," conv2d_28 (Conv2D)          (None, 60, 60, 128)       73856     \n","                                                                 \n"," max_pooling2d_28 (MaxPoolin  (None, 30, 30, 128)      0         \n"," g2D)                                                            \n","                                                                 \n"," conv2d_29 (Conv2D)          (None, 28, 28, 128)       147584    \n","                                                                 \n"," max_pooling2d_29 (MaxPoolin  (None, 14, 14, 128)      0         \n"," g2D)                                                            \n","                                                                 \n"," conv2d_30 (Conv2D)          (None, 12, 12, 256)       295168    \n","                                                                 \n"," max_pooling2d_30 (MaxPoolin  (None, 6, 6, 256)        0         \n"," g2D)                                                            \n","                                                                 \n"," flatten_6 (Flatten)         (None, 9216)              0         \n","                                                                 \n"," dropout_6 (Dropout)         (None, 9216)              0         \n","                                                                 \n"," dense_18 (Dense)            (None, 416)               3834272   \n","                                                                 \n"," dense_19 (Dense)            (None, 128)               53376     \n","                                                                 \n"," dense_20 (Dense)            (None, 4)                 516       \n","                                                                 \n","=================================================================\n","Total params: 4,424,164\n","Trainable params: 4,424,164\n","Non-trainable params: 0\n","_________________________________________________________________\n"]}]},{"cell_type":"code","source":["# Set training parameters\n","model.compile(loss='catego
…
